model.pth (torch, 691547 bytes, 12 tensors)

layer_stack.0.weight f4 [32, 1, 3, 3]
0.2342172 0.24144234 -0.040499926 -0.15582505 -0.23675404 -0.060843494 0.13618822 0.1443333
-0.12678897 -0.2875547 -0.10202685 0.04886477 0.26363295 -0.08804741 -0.30001116 0.26503456
-0.2673792 -0.12190044 0.2900832 -0.11728957 -0.26799378 0.18006681 0.077659525 -0.03715423
0.27309346 0.021799436 -0.15274163 0.032426335 0.20594689 0.0354442 -0.3005872 -0.24879965
-0.18152486 -0.07740723 -0.25391293 0.31865484 -0.28385174 0.07428813 -0.19049126 0.08834877
0.19510597 0.24585502 -0.0133618135 -0.04331154 -0.16721751 0.12118127 0.19119939 0.065745145
-0.28290755 -0.065142624 0.19397639 -0.21421875 -0.28430942 -0.26739934 -0.08999892 -0.2279281
0.03296642 0.30935013 0.15842849 -0.26432273 -0.2983163 0.32371628 -0.23278965 -0.024080206
0.031668533 -0.050099242 0.07940331 -0.17926297 0.3326893 -0.2771258 -0.071740225 -0.042683303
0.08730962 0.06916154 -0.0536803 -0.3389137 0.13459328 -0.09461158 -0.24109422 -0.12703729
-0.19471996 -0.12164653 -0.1107627 0.31179592 0.16359141 0.16913193 0.1195514 -0.03357007
0.03430021 -0.03148892 -0.2913265 0.3099895 -0.08914252 0.12541655 -0.06249216 -0.32275134
-0.1977223 0.061548647 0.22298619 -0.32325268 0.22959436 0.11695403 -0.15809 -0.22155139
-0.1969784 -0.2967575 -0.242968 -0.23337933 -0.16886745 0.013008824 0.08977053 0.14511491
-0.02748765 -0.011878893 -0.03880723 -0.18645185 0.28478706 -0.15981632 0.25191748 -0.07885424
-0.23560311 0.28528512 0.17446415 0.3214039 0.2975014 0.29638344 0.26742625 0.2844471
0.047614813 -0.10849095 -0.047616813 -0.011535118 -0.26131982 -0.29221764 0.14026426 -0.10427078
0.05603634 0.32899925 0.12605208 0.2965664 -0.17450097 -0.11129993 0.27350432 0.0030968785
0.009027244 0.1491557 0.015727317 0.09786858 -0.020967392 -0.21973643 0.112837814 0.18362112
0.12544563 0.18166539 0.28345552 -0.01135916 0.1296334 -0.060115464 0.3046477 0.2183144
0.2696972 0.129029 -0.3153767 0.13538702 0.11167298 -0.091955595 -0.039819174 0.15706567
-0.055135988 0.30580625 -0.025975412 -0.12243633 -0.3105968 0.20180261 -0.12703587 0.3308214
-0.2520627 -0.054029733 -0.13860717 0.08195114 -0.19075084 -0.23770468 -0.07766129 0.1483166
0.24295105 -0.3146486 0.2870261 0.2539644 0.11826769 -0.09666784 -0.18224381 0.07814863
-0.14344695 0.021774482 0.087536104 0.24943715 0.30683252 -0.042437453 0.2404636 0.13367522
0.23806775 0.14354907 0.04798738 -0.29408774 -0.22629665 0.14316499 -0.26181152 0.20486906
-0.2558057 0.050334573 -0.14817321 -0.030742059 -0.052124333 -0.03921167 0.33946145 0.041908823
0.14004655 0.0037404525 -0.31125474 -0.0029851797 -0.1072453 0.29648826 -0.313529 0.1367139
0.1894383 -0.21090862 0.21775083 0.014487137 -0.2089822 0.07528872 0.18811406 0.32505706
0.20383605 -0.34016678 -0.029147346 -0.29913393 -0.17086978 -0.033786297 0.2404569 0.05944109
-0.31432262 0.05301663 -0.28532496 -0.20152049 -0.113871925 -0.25980356 -0.14932758 -0.02961662
0.2061627 -0.10825554 0.3116839 0.14475363 0.13855834 -0.2678961 -0.04428971 0.22075798
00000000: a2d6 6f3e a93c 773e 40e3 25bd 9a90 1fbe
00000010: a76f 72be 0737 79bd ed74 0b3e 1ccc 133e
00000020: f8d4 01be 5f3a 93be 74f3 d0bd 6d26 483d
00000030: e6fa 863e 3352 b4bd 109b 99be 9cb2 873e
00000040: ede5 88be f0a6 f9bd c985 943e 8435 f0bd
00000050: 7b36 89be 6f63 383e f50b 9f3d 092f 18bd
00000060: e8d2 8b3e bb94 b23c 4d68 1cbe 7ad1 043d
00000070: bee3 523e f02d 113d 91e6 99be 56c5 7ebe
00000080: a7e1 39be af87 9ebd e000 82be ba26 a33e
00000090: 0455 91be 6024 983d 2410 43be 33f0 b43d
000000a0: dcc9 473e 6bc1 7b3e 82eb 5abc 7167 31bd
000000b0: 113b 2bbe e32d f83d c6c9 433e 64a5 863d
000000c0: 42d9 90be 7f69 85bd bfa1 463e 295c 5bbe
000000d0: 0191 91be 91e8 88be 5b51 b8bd fc65 69be
000000e0: cc07 073d 2463 9e3e 143b 223e 4f55 87be
000000f0: eabc 98be 24be a53e 6960 6ebe da43 c5bc
00000100: ddb6 013d dd34 4dbd 349e a23d b690 37be
00000110: 4056 aa3e 6fe3 8dbe 8aec 92bd b0d4 2ebd
00000120: 63cf b23d 91a4 8d3d e0df 5bbd 1986 adbe
00000130: d2d2 093e b7c3 c1bd 67e1 76be 1016 02be
00000140: ab64 47be d121 f9bd 8ed7 e2bd b7a3 9f3e
00000150: 8284 273e ec30 2d3e 5dd7 f43d c580 09bd
00000160: 617e 0c3d 87fa 00bd bf28 95be f2b6 9e3e
00000170: 5b90 b6bd 326d 003e c7f7 7fbd aa3f a5be
00000180: b777 4abe 6f1a 7c3d 7e56 643e 6081 a5be
00000190: c91a 6b3e 9885 ef3d 58e2 21be 5ede 62be
000001a0: b5b4 49be 99f0 97be 9acc 78be fefa 6ebe
000001b0: 97eb 2cbe f622 553c 9dd9 b73d 0199 143e
000001c0: c82d e1bc b09f 42bc 54f4 1ebd 3ced 3ebe
000001d0: 9ccf 913e e4a6 23be 54fb 803e 557e a1bd
000001e0: f141 71be e410 923e bba6 323e 0d8f a43e
000001f0: 1a52 983e 92bf 973e 18ec 883e 0da3 913e
00000200: c007 433d 8130 debd d909 43bd cbfd 3cbc
00000210: b6cb 85be 8d9d 95be 6fa1 0f3e eb8b d5bd
00000220: 5c86 653d 9772 a83e cc13 013e 8dd7 973e
00000230: 62b0 32be 38f1 e3bd c208 8c3e 00f5 4a3b
00000240: 01e7 133c 46bc 183e 93d6 803c 526f c83d
00000250: cfc3 abbc 9602 61be 8317 e73d 2d07 3c3e
00000260: d274 003e 7e06 3a3e 1521 913e c51b 3abc
00000270: 9ebe 043e a23b 76bd c9fa 9b3e cf8d 5f3e
00000280: c015 8a3e 2e20 043e 0e79 a1be e5a2 0a3e
00000290: ceb4 e43d 3753 bcbd 6e19 23bd d3d5 203e
000002a0: 46d6 61bd a392 9c3e 63ca d4bc e6bf fabd
000002b0: 8b06 9fbe 58a5 4e3e b115 02be 6c61 a93e
000002c0: 5d0e 81be 484e 5dbd 0aef 0dbe 00d6 a73d
000002d0: 3054 43be db68 73be e20c 9fbd 4fe0 173e
000002e0: 29c8 783e 9f19 a1be 16f5 923e 9f07 823e
000002f0: 5536 f23d caf9 c5bd 1f9e 3abe 640c a03d
00000300: c2e3 12be 6660 b23c 2146 b33d 746c 7f3e
00000310: 2719 9d3e e5d2 2dbd 173c 763e 28e2 083e
00000320: 08c8 733e 87fe 123e 6a8e 443d ab92 96be
00000330: 4fba 67be d899 123e 290c 86be 32c9 513e
00000340: f7f8 82be a02b 4e3d b8ba 17be c5d6 fbbc
00000350: 5380 55bd 6b9c 20bd e4cd ad3e 96a8 2b3d
00000360: 5d68 0f3e 6122 753b c85c 9fbe 01a3 43bb
00000370: 6da3 dbbd 4fcd 973e e086 a0be bbfe 0b3e
00000380: 1dfc 413e 6ef8 57be 13fa 5e3e 755b 6d3c
00000390: 6eff 55be f930 9a3d f9a0 403e e16d a63e
000003a0: 66ba 503e 572a aebe 6ac6 eebc 1528 99be
000003b0: 7df8 2ebe 8063 0abd 553a 763e 8078 733d
000003c0: e5ee a0be f727 593d 1d16 92be 635b 4ebe
000003d0: af35 e9bd f904 85be 54e9 18be 8e9e f2bc
000003e0: 511c 533e 15b5 ddbd 0895 9f3e 4c3a 143e
000003f0: 3de2 0d3e ad29 89be 2069 35bd 610e 623e

layer_stack.0.bias f4 [32]
-0.22773539 -0.16952878 -0.0015604906 -0.3257638 -0.15252359 -0.24941859 -0.29525602 0.22058825
-0.27780816 0.09063019 0.18341964 0.117395535 0.16011888 -0.022720529 -0.069097206 0.0426685
-0.29578292 0.08237327 -0.1795448 -0.10319497 -0.29087916 -0.00038336133 0.2803304 0.14104383
-0.093756154 -0.31739396 -0.025743054 -0.13909635 -0.20099153 0.092405595 0.08059467 -0.23391858
00000000: 7733 69be f498 2dbe 6089 ccba 83ca a6be
00000010: 252f 1cbe 9667 7fbe cc2b 97be e3e1 613e
00000020: df3c 8ebe 529c b93d 5cd2 3b3e 126d f03d
00000030: 34f6 233e 6720 babc d682 8dbd 2ac5 2e3d
00000040: dc70 97be 51b3 a83d 98da 37be e257 d3bd
00000050: 1dee 94be e3fd c8b9 7787 8f3e cb6d 103e
00000060: 3a03 c0bd 7681 a2be 19e3 d2bc 466f 0ebe
00000070: b9d0 4dbe 253f bd3d d10e a53d 5a88 6fbe

layer_stack.2.weight f4 [10, 32, 3, 3]
0.038594626 -0.030332092 0.0017793466 -0.026935128 -0.064776294 -0.036148157 -0.058365706 -0.00033658172
-0.01750344 0.026193444 -0.054871663 0.0115689635 0.007994429 -0.034397755 -0.034403577 -0.01455482
-0.065290675 -0.017992292 0.010466299 -0.058610458 0.024281243 -0.0471569 -0.045385946 0.037752006
-0.038586106 -0.018828824 -0.008558879 -0.050997328 -0.011219837 0.0031064 0.027750924 -0.008129394
-0.058755 0.008794939 0.02689144 0.0060848254 0.015194955 0.0016221204 0.0041111787 0.030848399
-0.021061992 0.033768997 0.036329392 0.04325598 -0.031743277 0.0035454852 -0.060514476 0.025930755
0.01319003 -0.024251306 -0.013080433 0.040951636 -0.006032904 0.029058194 -0.029297652 0.0073815277
-0.05330233 -0.022319788 -0.012909373 0.018926615 -0.014394824 -0.04412855 0.049922254 0.006503678
0.020652164 -0.020270726 0.033948984 0.015694873 -0.026179729 -0.0046518347 -0.04138035 0.02938315
0.03786883 -0.05802629 -0.047634974 -0.062594935 -0.0019088946 0.035469487 0.04715997 -0.018753637
0.015568993 -0.007900762 -0.026998274 -0.016424833 -0.012730731 -0.0026295478 -0.011878664 -0.053167444
-0.021354094 -0.047337633 -0.03837987 -0.037431046 0.047638617 -0.041417856 -0.007237463 0.03973669
0.028297521 -0.027466223 -0.013840424 0.011945896 0.019981708 -0.0012762411 -0.07061812 -0.042677794
-0.07225521 0.01830414 -0.0066847824 -0.06985025 -0.07248567 0.012170965 -0.073058896 -0.057590958
-0.025033094 -0.0014037887 -0.00049138337 -0.003952988 0.024187058 -0.014962379 -0.018695505 0.034931578
0.033910263 -0.03845019 0.02618715 -0.004890962 0.03337485 -0.009610966 -0.015557931 0.008803169
-0.06090922 -0.051477306 -0.0497083 0.033784583 0.044870444 0.022119867 0.006554468 -0.0397833
0.015306796 -0.023095476 -0.052350156 -0.031622913 0.017487414 -0.053433787 -0.045227025 -0.030375198
-0.06455066 -0.040263284 0.02889523 0.0074668936 -0.023539705 0.03150182 -0.013906387 0.0077633737
-0.07027875 -0.009484056 0.033663623 -0.05046494 -0.03929539 -0.032682277 0.005002503 -0.04668558
-0.017495846 -0.014881537 0.015206436 0.048720084 0.014995582 0.022398734 0.007913232 -0.0021802082
-0.05500301 -0.045771077 -0.004963569 0.0066807205 0.0047206753 -0.034883745 -0.055755448 -0.04720867
0.0018667545 0.016129114 0.03263138 0.020903664 0.035429716 -0.013129892 0.0029422976 -0.03506265
0.0145934075 -0.022686007 0.035134744 -0.0009377328 -0.006366614 0.011143853 -0.01486037 -0.068203494
0.042012982 0.031286504 -0.045453746 -0.051475205 -0.018982282 -0.042791944 0.032798387 -0.013621711
-0.027549775 0.036699038 0.010132416 -0.033628244 -0.011181881 0.014586493 -0.026982388 -0.019073062
0.029721146 -0.0026238244 -0.023427056 0.020973625 0.018915448 -0.04202892 0.002988042 -0.045473646
0.036656246 0.046277188 -0.054245733 -0.044629186 0.024151614 0.012980562 -0.011750862 0.035338443
0.041719638 0.024030844 0.020048806 -0.028668132 -0.051397163 0.020851867 0.0030169745 -0.010361451
0.0005282797 0.0026106038 -0.001662982 -0.048678584 -0.03525439 0.05011791 0.04572327 -0.02817375
0.01232623 -0.052459795 0.038320463 0.003087971 -0.04334641 0.040663186 -0.02530663 0.030881805
-0.028498368 0.03979394 0.046880245 -0.0026604102 -0.038388833 -0.017693184 -0.0171433 -0.059739828
00000000: 6615 1e3d 027b f8bc f738 e93a 0fa7 dcbc
00000010: 6fa9 84bd 1710 14bd e110 6fbd 3c77 b0b9
00000020: 6063 8fbc a293 d63c 1cc1 60bd c08b 3d3c
00000030: 11fb 023c a9e4 0cbd c4ea 0cbd 5777 6ebc
00000040: 1eb7 85bd 9264 93bc d77a 2b3c 8511 70bd
00000050: 75e9 c63c 9827 41bd 9de6 39bd d9a1 1a3d
00000060: 770c 1ebd e83e 9abc 8a3a 0cbc 93e2 50bd
00000070: 68d3 37bc be94 4b3b e855 e33c 2631 05bc
00000080: 15a9 70bd a618 103c 704b dc3c 3763 c73b
00000090: 43f4 783c 549d d43a 11b7 863b c8b5 fc3c
000000a0: 338a acbc 5c51 0a3d 21ce 143d 2f2d 313d
000000b0: 3d05 02bd 5f5b 683b 07de 77bd bc6c d43c
000000c0: ff1a 583c adaa c6bc 504f 56bc e7bc 273d
000000d0: abaf c5bb 730b ee3c a101 f0bc bee0 f13b
000000e0: 8b53 5abd fdd7 b6bc d681 53bc fd0b 9b3c
000000f0: 45d8 6bbc 23c0 34bd 477b 4c3d ce1c d53b
00000100: ba2e a93c cb0e a6bc 170e 0b3d 8992 803c
00000110: df76 d6bc 6b6e 98bb 717e 29bd efb4 f03c
00000120: 591c 1b3d faac 6dbd e41c 43bd c631 80bd
00000130: e033 faba 7448 113d d02a 413d 3aa1 99bc
00000140: 1715 7f3c 3372 01bc 7c2b ddbc 5f8d 86bc
00000150: 8e94 50bc 7e54 2cbb ba9e 42bc 1bc6 59bd
00000160: c8ee aebc 1be5 41bd 3634 1dbd 4c51 19bd
00000170: b620 433d c5a5 29bd 3d28 edbb f1c2 223d
00000180: 34d0 e73c d800 e1bc f2c2 62bc b8b8 433c
00000190: aeb0 a33c 8c47 a7ba 3ca0 90bd e9ce 2ebd
000001a0: 8afa 93bd 90f2 953c 050c dbbb a60d 8fbd
000001b0: 5e73 94bd ba68 473c e79f 95bd 7fe4 6bbd
000001c0: 3412 cdbc 55ff b7ba 2ed0 00ba 1188 81bb
000001d0: f023 c63c c424 75bc 5127 99bc 6a14 0f3d
000001e0: 7de5 0a3d f27d 1dbd 6f86 d63c 5d44 a0bb
000001f0: 11b4 083d 5077 1dbc b1e6 7ebc 2b3b 103c
00000200: f27b 79bd ded9 52bd ee9a 4bbd b461 0a3d
00000210: 12ca 373d b934 b53c ddc6 d63b d0f3 22bd
00000220: 5bc9 7a3c b932 bdbc 1e6d 56bd 0787 01bd
00000230: c441 8f3c 63dd 5abd f93f 39bd 68d5 f8bc
00000240: 2333 84bd 1deb 24bd b0b5 ec3c d8ac f43b
00000250: 57d6 c0bc 0d08 013d 9dd7 63bc e663 fe3b
00000260: 4eee 8fbd 0463 1bbc dee2 093d 53b4 4ebd
00000270: 34f4 20bd dadd 05bd 09ec a33b 6139 3fbd
00000280: 7353 8fbc b1d1 73bc 6a24 793c b68e 473d
00000290: 08b0 753c 8d7d b73c 80a6 013c d3e1 0ebb
000002a0: d64a 61bd 747a 3bbd 6fa5 a2bb f2e9 da3b
000002b0: e5af 9a3b 42e2 0ebd d35f 64bd e15d 41bd
000002c0: e3ad f43a 3421 843c 7ba8 053d 293e ab3c
000002d0: c01e 113d c21e 57bc 90d3 403b da9d 0fbd
000002e0: 3019 6f3c 01d8 b9bc 73e9 0f3d 2fd2 75ba
000002f0: 079f d0bb b594 363c e978 73bc 46ae 8bbd
00000300: ce15 2c3d 4726 003d b52d 3abd aad7 52bd
00000310: bb80 9bbc 9b46 2fbd 9a57 063d 992d 5fbc
00000320: 11b0 e1bc bb51 163d 6f02 263c c5bd 09bd
00000330: 3534 37bc 30fc 6e3c 2b0a ddbc 1c3f 9cbc
00000340: c379 f33c 78f4 2bbb 19ea bfbc e1d0 ab3c
00000350: 92f4 9a3c 8426 2cbd 07d3 433b 9342 3abd
00000360: dc24 163d 268d 3d3d c630 5ebd 18cd 36bd
00000370: 9bd9 c53c 6cac 543c b086 40bc 0bbf 103d
00000380: 36e2 2a3d 55dc c43c 653d a43c 6ed9 eabc
00000390: d585 52bd 89d1 aa3c 6fb8 453b 13c3 29bc
000003a0: 407c 0a3a aa16 2b3b 6bf8 d9ba 3263 47bd
000003b0: e866 10bd 7048 4d3d 5348 3b3d a3cc e6bc
000003c0: f5f3 493c 15e0 56bd ebf5 1c3d 8e5f 4a3b
000003d0: 018c 31bd 718e 263d da4f cfbc d7fb fc3c
000003e0: 6975 e9bc f8fe 223d 8005 403d 475a 2ebb
000003f0: 9c3d 1dbd 4cf1 90bc 1b70 8cbc c0b1 74bd

layer_stack.2.bias f4 [10]
0.039392397 -0.016896395 -0.027632428 0.024314886 -0.03586606 -0.026156655 -0.00740916 -0.009868522
0.033978857 0.0031839418
00000000: ec59 213d 4f6a 8abc 675d e2bc 0330 c73c
00000010: 4ae8 12bd 7b46 d6bc 8ac8 f2bb 95af 21bc
00000020: 6a2d 0b3d aea9 503b

layer_stack.6.weight f4 [40, 4200]
0.004971384 0.010995813 0.002947471 0.009971783 0.0012987318 -0.0046272962 0.016732479 0.018898787
0.018513096 0.016910447 0.008227296 0.011204731 0.014599019 0.019184155 0.0062396047 0.013331191
0.008613699 0.014267302 -0.009215106 0.009617514 -0.0041264067 0.011062482 -0.0005464883 0.01621476
0.01224544 -0.0024109778 0.010354079 0.0060527152 0.014061361 0.008669006 0.006207221 0.014401031
0.009548727 0.0055667185 0.010334584 0.007764709 0.010422737 -0.0061335145 0.0011156129 -0.0007096464
0.0044713547 0.016581198 0.019866833 -0.0040898523 -0.0023840892 0.002724672 -0.007973387 0.011660783
0.008460127 0.006778474 0.0019101718 0.0042717364 0.005723919 0.018189367 0.012832641 0.012233755
0.014741904 0.009085465 0.01522461 -0.009210927 -0.008655785 -0.008359851 -0.0005200024 0.0018378554
-0.004657695 -0.0067128404 0.004447732 -0.0073720855 0.014905821 0.0012479359 0.0135657685 0.013654917
-0.008358089 0.011588314 0.0073845456 0.015991837 2.3610446e-05 0.010939243 -0.008827889 0.009921425
0.0058552856 0.009405312 -0.010014125 -0.0010450702 0.0038382828 -0.003580503 -0.0055061737 0.020113705
0.01581627 0.009042377 -0.004375415 0.0063113803 0.0003796818 -0.0066204257 0.0044926475 0.017734054
0.012417058 0.001795061 0.0103342 0.01005895 0.015270774 0.007929883 0.0014287013 0.0034635318
0.0011568301 -0.008839765 0.0062674033 0.0070417514 0.020422261 0.006740297 0.006193458 -0.0052948724
-0.001928011 0.016277837 0.008696597 0.019904923 0.018091487 0.0059359013 0.0058394163 0.002532646
0.0019850906 -0.003784079 -0.0037850747 -0.002905302 0.008712089 -0.003592451 0.00089277455 0.0032745423
0.018824799 -0.004667299 0.017029893 -0.0032422105 0.01482583 0.0054775504 0.0052268696 0.0069005024
0.019716749 -0.009315081 0.009623681 0.019595576 -0.005099653 -0.0018180712 0.020233424 0.006715014
-0.006868248 0.007973147 0.012951135 0.019608697 0.013191733 0.019700108 -0.0068617626 -0.0070669865
-0.0005931717 0.01510301 0.001586299 -0.0029519137 0.010452433 0.0046704896 0.0007395096 0.016745368
0.01682345 0.01806197 8.030185e-05 0.012813937 0.007368173 0.014767504 0.01859628 0.0035847258
0.0052587534 0.013893646 -0.010080944 -0.008431069 0.006410555 -0.008791396 0.011217326 0.0037647039
0.020339333 0.014539045 -0.008051088 0.009873625 -0.008589749 0.01337874 0.0045867567 -0.0066935313
-0.005214023 0.011131238 0.0032167058 0.014071842 -0.00025882747 -0.0024487122 0.0065025366 0.0038811848
0.0098220175 0.01473414 -0.00068332447 -0.009789808 0.011398245 0.011418086 -0.0040329816 0.0065012397
-0.0070967656 -0.0052117566 -0.0011071234 0.020354478 0.017348472 0.008056426 0.019648116 0.017513532
-0.0029698166 0.015704783 0.014099188 0.0064603826 0.0053019985 0.01904459 0.014421576 0.011966869
-0.005575099 -0.0036563838 -0.0012606618 0.008753333 0.008418447 0.009785916 -0.0037564347 0.013564797
-0.0098600015 0.014995689 -0.009730304 0.019226678 -0.00091008854 0.012773321 -0.0075652394 0.0075808526
0.015731057 0.013489182 0.01722322 0.0033516844 0.016999118 -0.006459372 0.0064762975 -0.0020882539
0.008737131 0.0090902615 0.00742609 0.018775174 0.007971204 0.0027639384 -0.0068881856 -0.0035285053
0.017439803 -0.0028993955 0.006389091 0.01723628 -0.006278694 0.009574374 0.0042343964 -0.0070726676
00000000: fee6 a23b c827 343c 5c2a 413b b060 233c
00000010: 353a aa3a 93a0 97bb 8d12 893c a1d1 9a3c
00000020: c7a8 973c c787 8a3c c8cb 063c 0c94 373c
00000030: b930 6f3c 1728 9d3c 9975 cc3b 116b 5a3c
00000040: 7920 0d3c 67c1 693c f5fa 16bc c792 1d3c
00000050: cf36 87bb 6a3f 353c 3642 0fba d1d4 843c
00000060: 19a1 483c 7f01 1ebb 28a4 293c db55 c63b
00000070: 9f61 663c 7208 0e3c f265 cb3b 4df2 6b3c
00000080: 4472 1c3c 0569 b63b 6352 293c 1a6f fe3b
00000090: 21c4 2a3c a6fb c8bb c239 923a 9007 3aba
000000a0: 7184 923b 4bd5 873c c5bf a23c 2b04 86bb
000000b0: 613e 1cbb 6990 323b cfa2 02bc de0c 3f3c
000000c0: 589c 0a3c f61d de3b bb5e fa3a ecf9 8b3b
000000d0: b68f bb3b de01 953c ff3f 523c 1670 483c
000000e0: 0788 713c 34db 143c a570 793c 6ee9 16bc
000000f0: fed0 0dbc c2f7 08bc c550 08ba 32e4 f03a
00000100: 949f 98bb 63f7 dbbb 48be 913b 8991 f1bb
00000110: 8b37 743c c891 a33a f542 5e3c dfb8 5f3c
00000120: 5ef0 08bc e9dc 3d3c 0ffa f13b 5001 833c
00000130: 0c0f c637 833a 333c daa2 10bc 798d 223c
00000140: b2dd bf3b bd18 1a3c 4912 24bc bdfa 88ba
00000150: b38b 7b3b dfa6 6abb 226d b4bb 7fc5 a43c
00000160: 1f91 813c 7a26 143c a45f 8fbb b2cf ce3b
00000170: 0710 c739 28f0 d8bb 0f37 933b 0247 913c
00000180: eb70 4b3c 4148 eb3a c750 293c 4bce 243c
00000190: 4532 7a3c 57ec 013c 4343 bb3a 6cfc 623b
000001a0: c7a0 973a a9d4 10bc ca5e cd3b 7ebe e63b
000001b0: 964c a73c b6dd dc3b 7ef2 ca3b 9c80 adbb
000001c0: 50b5 fcba 1959 853c 2c7c 0e3c a60f a33c
000001d0: 9934 943c f381 c23b 9358 bf3b c0fa 253b
000001e0: 4b18 023b 50fe 77bb 040f 78bb e166 3ebb
000001f0: 26bd 0e3c 546f 6bbb 1609 6a3a b499 563b
00000200: 7736 9a3c 24f0 98bb 4682 8b3c 447b 54bb
00000210: 0ae8 723c 067d b33b 2946 ab3b 9c1d e23b
00000220: 0585 a13c 489e 18bc a5ac 1d3c e786 a03c
00000230: fd1a a7bb 594c eeba 91c0 a53c 9f09 dc3b
00000240: 0a0f e1bb cda1 023c ff30 543c 6ba2 a03c
00000250: 2322 583c 1f62 a13c a3d8 e0bb 2e92 e7bb
00000260: 147f 1bba 9e72 773c 5deb cf3a e574 41bb
00000270: ae40 2b3c e80a 993b a6db 413a 952d 893c
00000280: 55d1 893c b2f6 933c ba67 a838 8cf1 513c
00000290: b770 f13b 67f3 713c 3a57 983c b8ed 6a3b
000002a0: 9f51 ac3b 2da2 633c 8b2a 25bc 7722 0abc
000002b0: a20f d23b ca09 10bc e0c8 373c 40b9 763b
000002c0: ac9e a63c 2d35 6e3c b6e8 03bc fcc4 213c
000002d0: 05bc 0cbc 8132 5b3c 814c 963b 6955 dbbb
000002e0: 65da aabb cc5f 363c 5ecf 523b 958d 663c
000002f0: 3cb3 87b9 937a 20bb 3b13 d53b 7a5b 7e3b
00000300: 87ec 203c 7667 713c 2121 33ba 6e65 20bc
00000310: b4bf 3a3c ec12 3b3c 1a27 84bb 5a08 d53b
00000320: fc8b e8bb 62c7 aabb e61c 91ba 6fbe a63c
00000330: 621e 8e3c 1aff 033c 16f5 a03c 8a78 8f3c
00000340: 41a1 42bb 51a7 803c 4800 673c 9eb1 d33b
00000350: 63bc ad3b 6603 9c3c 7948 6c3c b010 443c
00000360: 52af b6bb f19f 6fbb ca3c a5ba 246a 0f3c
00000370: 87ed 093c 1b55 203c 842e 76bb e23e 5e3c
00000380: d88b 21bc 7ab0 753c da6b 1fbc 4481 9d3c
00000390: 0293 6eba 3147 513c d4e5 f7bb cd68 f83b
000003a0: 6bde 803c bb01 5d3c b617 8d3c efa7 5b3b
000003b0: bc41 8b3c 24a9 d3bb 1f37 d43b 16db 08bb
000003c0: 2f26 0f3c 52ef 143c 8f56 f33b 65ce 993c
000003d0: a799 023c 3123 353b 4ab6 e1bb 7f3e 67bb
000003e0: ebdd 8e3c c903 3ebb 945b d13b 1933 8d3c
000003f0: 81bd cdbb d6dd 1c3c b1c0 8a3b d6c1 e7bb

layer_stack.6.bias f4 [40]
-0.011118736 0.006419444 -0.013558006 0.0055392813 0.022438766 -0.013981712 0.015748648 -0.0020287517
0.0010179698 0.024808282 0.017374573 -0.0076840855 -0.0028148412 -3.9347193e-05 0.0043255473 0.017550113
-0.009541611 0.010119204 0.013526482 0.019365136 -0.025649019 -0.015058334 0.0048018764 0.015395196
-0.023971952 -0.0031230233 0.0028613883 0.010819595 0.014590151 -0.0029136126 0.0039183963 0.009953514
0.006122102 0.0032549996 -0.008610028 -0.0052622007 -0.016787842 -0.0025141328 -0.0031866059 0.002399963
00000000: 5c2b 36bc 335a d23b 6622 5ebc dc82 b53b
00000010: 81d1 b73c 8d13 65bc 4f03 813c cef4 04bb
00000020: 666d 853a bd3a cb3c 1f55 8e3c c8ca fbbb
00000030: 3379 38bb ba08 25b8 52bd 8d3b 41c5 8f3c
00000040: 6b54 1cbc 05cb 253c 2d9e 5d3c a2a3 9e3c
00000050: e41d d2bc 3bb7 76bc 0f59 9d3b 223c 7c3c
00000060: d460 c4bc a3ab 4cbb 2186 3b3b ac44 313c
00000070: 870b 6f3c 4ff2 3ebb e465 803b 1014 233c
00000080: ea9b c83b d551 553b 1311 0dbc 8a6e acbb
00000090: a886 89bc 26c4 24bb 60d6 50bb b348 1d3b

layer_stack.7.weight f4 [40]
0.9876545 0.9840065 0.9831732 1.0044361 1.0227274 1.0018679 0.98665905 0.9842087
0.9837366 1.0082126 1.0035541 0.98604476 1.0081333 1.0094452 1.0064386 1.0063813
0.98724055 1.0052629 1.0017511 1.0091466 1.004192 0.98813784 0.98398656 0.9970718
1.0069358 0.98613006 1.0243016 0.9990344 0.9938839 1.0139997 1.0018718 0.9857271
0.996492 1.006509 0.9836627 0.99647015 1.003769 1.0001004 0.9837843 0.98463273
00000000: edd6 7c3f dae7 7b3f 3db1 7b3f 5d91 803f
00000010: bbe8 823f 353d 803f b095 7c3f 1af5 7b3f
00000020: 29d6 7b3f 1c0d 813f 7674 803f 6e6d 7c3f
00000030: 830a 813f 8035 813f fbd2 803f 1ad1 803f
00000040: ccbb 7c3f 74ac 803f 6139 803f b72b 813f
00000050: 5d89 803f 9af6 7c3f 8be6 7b3f 1940 7f3f
00000060: 46e3 803f 0573 7c3f 511c 833f b8c0 7f3f
00000070: 2d6f 7e3f beca 813f 563d 803f 9c58 7c3f
00000080: 1a1a 7f3f 49d5 803f 52d1 7b3f ab18 7f3f
00000090: 817b 803f 4a03 803f 4ad9 7b3f e410 7c3f

layer_stack.7.bias f4 [40]
0.0021943953 -0.00019692854 0.018776018 0.0042086905 0.02348697 -0.0025691518 0.0039974567 0.0058686933
0.0028457441 0.020125762 0.0023159082 0.0033468786 -0.018628102 -0.009186915 -0.006144388 0.0066262432
0.00064396736 0.017878463 0.019307604 0.009027603 -0.004681879 -0.004911438 0.0018691728 -0.003637687
-0.0069529153 -0.00471849 0.025301563 0.0023557327 0.010467846 -0.013106435 0.0009054102 0.0021273452
0.011001246 0.00831688 0.005664287 -0.0130327605 -0.00454993 -0.021805609 0.004438066 -0.0044997786
00000000: d8cf 0f3b 9a7e 4eb9 2ad0 993c 0ee9 893b
00000010: bf67 c03c 375f 28bb 19fd 823b 2b4e c03b
00000020: aa7f 3a3b c8de a43c 7ec6 173b 4e57 5b3b
00000030: f699 98bc b784 16bc dd56 c9bb f520 d93b
00000040: ebcf 283a db75 923c fb2a 9e3c 83e8 133c
00000050: 736a 99bb 21f0 a0bb 08ff f43a 4366 6ebb
00000060: 48d5 e3bb 909d 9abb 3945 cf3c a362 1a3b
00000070: 5481 2b3c 5fbc 56bc 0d59 6d3a ee6a 0b3b
00000080: 923e 343c 8643 083c 7c9b b93b 5c87 55bc
00000090: 9417 95bb ada1 b2bc 326d 913b e172 93bb

layer_stack.8.weight f4 [10, 40]
0.088005364 -0.13744828 0.089146316 -0.10937408 -0.13659617 -0.029541343 -0.05477853 -0.042810686
0.117200695 -0.03396484 0.08947294 0.011158028 0.108083576 0.12775083 -0.06314768 0.0032645063
0.031814944 -0.11258518 -0.093075715 -0.03588977 0.11657749 0.0376016 0.11774247 -0.07002003
0.1310528 0.10954583 -0.10290644 0.12684308 -0.06979207 0.16402857 -0.038087122 0.044073213
-0.13796201 -0.14246215 -0.08774389 -0.046483766 0.059317335 0.050844584 -0.09981271 -0.044322386
-0.14454292 -0.0064125466 0.13475658 -0.10073442 0.10497828 0.11817493 0.07340971 -0.12633644
-0.1217689 0.025173897 0.12701744 0.019119876 -0.016909432 0.019949526 0.0057519767 -0.08797479
-0.07552136 -0.06003879 0.104052395 0.044342473 0.03863224 0.09119703 0.015460087 0.13077155
0.07087468 0.11755146 0.084450334 0.009591271 0.05964428 -0.11738107 0.031698655 -0.0070059053
-0.048214123 -0.02349865 0.066809826 -0.07014387 0.05065652 0.13798298 -0.089571275 -0.02018272
0.13508703 0.0140369255 0.029701738 -0.097344115 0.15196767 -0.048423965 -0.05382128 0.02006189
-0.02430556 0.1767606 0.113971755 -0.046877332 -0.10691203 -0.056803733 -0.03398036 0.05350601
0.10000087 0.132554 0.054341335 0.0497788 -0.037171252 -0.0957181 0.0094392365 -0.01710469
-0.068001725 0.058496103 -0.04239739 0.010907312 0.09685128 -0.10176217 -0.0038606694 0.1413753
0.113214664 0.0014350538 0.012248298 -0.0813994 -0.088653795 -0.054144662 -0.042055584 -0.10599867
-0.06816767 -0.02759098 -0.14307393 0.013736513 -0.050214183 -0.15447305 -0.14642754 0.048318196
0.059741285 0.1316814 0.0219551 0.07361103 0.13747859 0.016526515 0.066268355 0.031446874
-0.14284405 0.014557602 -0.0297899 -0.0907517 -0.028007416 0.036156118 -0.013949701 0.019550715
0.113200404 0.02533768 0.017103698 -0.04386116 0.012587352 0.10256224 0.118600205 0.073745534
0.03863792 0.07344855 -0.0339076 0.056505624 -0.034317445 -0.16150564 -0.011973862 -0.10160578
-0.13465182 -0.07316066 0.09367043 -0.10503015 0.025904762 -0.08329773 0.06125427 0.0026868489
-0.17267093 -0.088482834 0.060373675 0.07674542 0.096143074 -0.048765082 0.13346916 -0.065140635
-0.04409436 -0.016209623 0.096045025 0.038159676 -0.11152986 -0.025650088 -0.07608523 0.008436434
0.056397013 0.048625827 0.037428703 -0.1432873 0.036408123 0.13897854 -0.026442159 0.02815336
-0.06565488 -0.007083305 1.7023443e-05 0.047858566 -0.022840755 0.13742681 0.011053764 -0.004327703
-0.04650389 -0.0833194 -0.113754354 0.018281091 -0.10543475 0.092099935 0.043358926 -0.16491076
0.10966874 -0.08275328 -0.11560545 0.033184946 -0.046748683 0.00035645993 -0.13596326 0.1321981
-0.107342534 -0.10221568 -0.07435687 0.12911874 -0.017654892 -0.08982056 0.11731797 -0.07056465
-0.047602236 0.03964153 -0.052507322 0.018786574 -0.015553985 -0.100403085 -0.04443469 -0.006234443
-0.03127148 0.08098753 0.09225952 0.08631898 -0.04888965 0.14714125 0.07127558 -0.052435674
-0.016399954 -0.014881787 0.13053614 0.1232692 -0.017108934 0.04194253 0.044229038 0.12877896
0.13533618 -0.08828743 -0.041434713 0.13554695 0.06881874 -0.0034569723 -0.04225917 0.040857885
00000000: 283c b43d 3ebf 0cbe 5892 b63d 85ff dfbd
00000010: dedf 0bbe b000 f2bc 745f 60bd 425a 2fbd
00000020: eb06 f03d b71e 0bbd 973d b73d 29d0 363c
00000030: ec5a dd3d 1dd1 023e 9253 81bd 54f1 553b
00000040: 6350 023d 0f93 e6bd 7b9e bebd 2701 13bd
00000050: 2ec0 ee3d 2304 1a3d f722 f13d a966 8fbd
00000060: b532 063e 9059 e03d 9dc0 d2bd 27e3 013e
00000070: 25ef 8ebd 1bf7 273e 3e01 1cbd 1d86 343d
00000080: ea45 0dbe 99e1 11be 12b3 b3bd c365 3ebd
00000090: bcf6 723d 6942 503d 9b6a ccbd 648b 35bd
000000a0: 0f03 14be 5720 d2bb a1fd 093e d94d cebd
000000b0: dafe d63d b305 f23d d457 963d 575e 01be
000000c0: f961 f9bd 7d39 ce3c dc10 023e 49a1 9c3c
000000d0: a685 8abc 306d a33c 147b bc3b 202c b4bd
000000e0: f1aa 9abd 3ceb 75bd 6c19 d53d 74a0 353d
000000f0: d73c 1e3d 82c5 ba3d 4e4c 7d3c fae8 053e
00000100: bf26 913d d2be f03d 4cf4 ac3d b524 1d3c
00000110: 8f4d 743d 7d65 f0bd 73d6 013d cb91 e5bb
00000120: 2c7c 45bd 3e80 c0bc 97d3 883d 97a7 8fbd
00000130: 367d 4f3d 694b 0d3e 2571 b7bd 3b56 a5bc
00000140: 4154 0a3e 22fb 653c 0f51 f33c 5a5c c7bd
00000150: 6a9d 1b3e 3558 46bd b473 5cbd d558 a43c
00000160: 741c c7bc bb00 353e 066a e93d 7202 40bd
00000170: b2f4 dabd 08ab 68bd fd2e 0bbd 1e29 5b3d
00000180: 42cd cc3d 3cbc 073e 0595 5e3d dbe4 4b3d
00000190: e240 18bd da07 c4bd 07a7 1a3c 231f 8cbc
000001a0: 7d44 8bbd 9c99 6f3d e3a8 2dbd 95b4 323c
000001b0: f759 c63d af68 d0bd 4903 7dbb b0c4 103e
000001c0: 17dd e73d 6a18 bc3a 16ad 483c bbb4 a6bd
000001d0: 1f90 b5bd cbc6 5dbd 7a42 2cbd d515 d9bd
000001e0: 7e9b 8bbd 7b06 e2bc f981 12be 1d0f 613c
000001f0: 63ad 4dbd 2f2e 1ebe 1af1 15be 4de9 453d
00000200: 47b3 743d 7dd7 063e 2fdb b33c 61c1 963d
00000210: 30c7 0c3e 9d62 873c b4b7 873d 70ce 003d
00000220: b645 12be 0283 6e3c f309 f4bc 07dc b9bd
00000230: cf6f e5bc 7018 143d 498d 64bc d228 a03c
00000240: 9dd5 e73d f790 cf3c 0e1d 8c3c c2a7 33bd
00000250: 2e3b 4e3c 270c d23d aae4 f23d e607 973d
00000260: cc42 1e3d 326c 963d b2e2 0abd 7172 673d
00000270: 7390 0cbd bc61 25be 042e 44bc b116 d0bd
00000280: 2be2 09be 42d5 95bd 48d6 bf3d 0c1a d7bd
00000290: 3936 d43c 0098 aabd c2e5 7a3d d815 303b
000002a0: a6d0 30be 7d36 b5bd 634a 773d b42c 9d3d
000002b0: a9e6 c43d e5bd 47bd 24ac 083e 7468 85bd
000002c0: 4a9c 34bd 0bca 84bc 41b3 c43d 524d 1c3d
000002d0: c469 e4bd 2220 d2bc 93d2 9bbd f838 0a3c
000002e0: 8e00 673d e02b 473d d74e 193d e8b9 12be
000002f0: af20 153d 6450 0e3e 3a9d d8bc e0a1 e63c
00000300: 1176 86bd 121b e8bb 91cd 8e37 5807 443d
00000310: 891c bbbc 9db9 0c3e d91a 353c 67cf 8dbb
00000320: dd7a 3ebd 5da3 aabd 0bf8 e8bd 3ac2 953c
00000330: 2dee d7bd e49e bc3d 2199 313d 5ede 28be
00000340: 019a e03d 8d7a a9bd 8dc2 ecbd f0ec 073d
00000350: 8c7b 3fbd 3ee3 ba39 f439 0bbe f05e 073e
00000360: 67d6 dbbd 7456 d1bd 6a48 98bd b437 043e
00000370: fea0 90bc d7f3 b7bd 6744 f03d 3384 90bd
00000380: 90fa 42bd 285f 223d eb11 57bd 4de6 993c
00000390: 24d6 7ebc 22a0 cdbd 2601 36bd 4c4a ccbb
000003a0: 8616 00bd cadc a53d 8ff2 bc3d 01c8 b03d
000003b0: 8340 48bd 32ac 163e eef8 913d cac6 56bd
000003c0: 3259 86bc bdd2 73bc 44ab 053e 9074 fc3d
000003d0: 0928 8cbc eecb 2b3d 8229 353d a2de 033e
000003e0: 9195 0a3e 0ad0 b4bd 72b7 29bd d2cc 0a3e
000003f0: d7f0 8c3d 5f8e 62bb f417 2dbd 995a 273d

layer_stack.8.bias f4 [10]
0.0069797407 0.092357054 0.07483393 0.13346463 -0.107500516 -0.008542896 0.015834086 -0.12415142
0.13916795 -0.0054038893
00000000: 4fb6 e43b b225 bd3d 8842 993d f4aa 083e
00000010: 3b29 dcbd 81f7 0bbc 7cb6 813c 1a43 febd
00000020: 0b82 0e3e 1c13 b1bb

layer_stack.9.weight f4 [3, 10]
0.07871068 0.09649697 -0.2966648 -0.085918136 -0.10974694 -0.17500052 -0.27764922 -0.068557315
0.07215305 0.06964905 0.23074293 -0.2115231 -0.1853706 0.16476485 0.2895925 0.24794336
0.20293447 0.30715692 -0.06408839 -0.032494728 0.25227657 -0.28343838 -0.27378616 -0.049961805
-0.03779477 0.049337953 0.2405878 -0.18149932 -0.11548726 0.13279888
00000000: 1133 a13d 34a0 c53d 73e4 97be d9f5 afbd
00000010: 01c3 e0bd 5633 33be 0a28 8ebe c767 8cbd
00000020: fac4 933d 29a4 8e3d e047 6c3e 8399 58be
00000030: cad1 3dbe 1eb8 283e 7845 943e dde4 7d3e
00000040: 0ece 4f3e ac43 9d3e c640 83bd 3119 05bd
00000050: 652a 813e d61e 91be b32d 8cbe c0a4 4cbd
00000060: b0ce 1abd 9816 4a3d a65c 763e f5da 39be
00000070: 9684 ecbd 6efc 073e

layer_stack.9.bias f4 [3]
0.231514 0.09661831 -0.26308203
00000000: 0212 6d3e d2df c53d b0b2 86be
